…
  (0): Transformer({'max_seq_length': 128, 'do_lower_case': False, 'adapter_size': 128, 'gnn_layer': 4, 'gnn_head_num': 4, 'gnn': 'GraphConv'}) with Transformer model: BertExtendModel 
  (1): Pooling({'word_embedding_dimension': 768, 'pooling_mode_cls_token': False, 'pooling_mode_mean_tokens': True, 'pooling_mode_max_tokens': False, 'pooling_mode_mean_sqrt_len_tokens': False, 'pooling_mode_weightedmean_tokens': False, 'pooling_mode_lasttoken': False})
)Transformer({'max_seq_length': 128, 'do_lower_case': False, 'adapter_size': 128, 'gnn_layer': 4, 'gnn_head_num': 4, 'gnn': 'GraphConv'}) with Transformer model: BertExtendModel BertExtendModel(
  (embeddings): BertEmbeddings(
    (word_embeddings): Embedding(30794, 768, padding_idx=0)
    (position_embeddings): Embedding(512, 768)
    (token_type_embeddings): Embedding(2, 768)
    (LayerNorm): LayerNorm((768,), eps=1e-12, elementwise_affine=True)
    (dropout): Dropout(p=0.1, inplace=False)
  )
  (encoder): BertExtendEncoder(
    (layer): ModuleList(
      (0): BertExtendLayer(
        (attention): BertAttention(
          (self): BertSelfAttention(
            (query): Linear(in_features=768, out_features=768, bias=True)
            (key): Linear(in_features=768, out_features=768, bias=True)
            (value): Linear(in_features=768, out_features=768, bias=True)
            (dropout): Dropout(p=0.1, inplace=False)
          )
          (output): BertSelfOutput(
            (dense): Linear(in_features=768, out_features=768, bias=True)
            (LayerNorm): LayerNorm((768,), eps=1e-12, elementwise_affine=True)
            (dropout): Dropout(p=0.1, inplace=False)
          )
        )
        (intermediate): BertIntermediate(
          (dense): Linear(in_features=768, out_features=3072, bias=True)
          (intermediate_act_fn): GELUActivation()
        )
        (output): BertOutput(
          (dense): Linear(in_features=3072, out_features=768, bias=True)
          (LayerNorm): LayerNorm((768,), eps=1e-12, elementwise_affine=True)
          (dropout): Dropout(p=0.1, inplace=False)
        )
      )
      (1): BertExtendLayer(
        (attention): BertAttention(
          (self): BertSelfAttention(
            (query): Linear(in_features=768, out_features=768, bias=True)
            (key): Linear(in_features=768, out_features=768, bias=True)
            (value): Linear(in_features=768, out_features=768, bias=True)
            (dropout): Dropout(p=0.1, inplace=False)
          )
          (output): BertSelfOutput(
            (dense): Linear(in_features=768, out_features=768, bias=True)
            (LayerNorm): LayerNorm((768,), eps=1e-12, elementwise_affine=True)
            (dropout): Dropout(p=0.1, inplace=False)
          )
        )
        (intermediate): BertIntermediate(
          (dense): Linear(in_features=768, out_features=3072, bias=True)
          (intermediate_act_fn): GELUActivation()
        )
        (output): BertOutput(
          (dense): Linear(in_features=3072, out_features=768, bias=True)
          (LayerNorm): LayerNorm((768,), eps=1e-12, elementwise_affine=True)
          (dropout): Dropout(p=0.1, inplace=False)
        )
      )
      (2): BertExtendLayer(
        (attention): BertAttention(
          (self): BertSelfAttention(
            (query): Linear(in_features=768, out_features=768, bias=True)
            (key): Linear(in_features=768, out_features=768, bias=True)
            (value): Linear(in_features=768, out_features=768, bias=True)
            (dropout): Dropout(p=0.1, inplace=False)
          )
          (output): BertSelfOutput(
            (dense): Linear(in_features=768, out_features=768, bias=True)
            (LayerNorm): LayerNorm((768,), eps=1e-12, elementwise_affine=True)
            (dropout): Dropout(p=0.1, inplace=False)
          )
        )
        (intermediate): BertIntermediate(
          (dense): Linear(in_features=768, out_features=3072, bias=True)
          (intermediate_act_fn): GELUActivation()
        )
        (output): BertOutput(
          (dense): Linear(in_features=3072, out_features=768, bias=True)
          (LayerNorm): LayerNorm((768,), eps=1e-12, elementwise_affine=True)
          (dropout): Dropout(p=0.1, inplace=False)
        )
      )
      (3): BertExtendLayer(
        (attention): BertAttention(
          (self): BertSelfAttention(
            (query): Linear(in_features=768, out_features=768, bias=True)
            (key): Linear(in_features=768, out_features=768, bias=True)
            (value): Linear(in_features=768, out_features=768, bias=True)
            (dropout): Dropout(p=0.1, inplace=False)
          )
          (output): BertSelfOutput(
            (dense): Linear(in_features=768, out_features=768, bias=True)
            (LayerNorm): LayerNorm((768,), eps=1e-12, elementwise_affine=True)
            (dropout): Dropout(p=0.1, inplace=False)
          )
        )
        (intermediate): BertIntermediate(
          (dense): Linear(in_features=768, out_features=3072, bias=True)
          (intermediate_act_fn): GELUActivation()
        )
        (output): BertOutput(
          (dense): Linear(in_features=3072, out_features=768, bias=True)
          (LayerNorm): LayerNorm((768,), eps=1e-12, elementwise_affine=True)
          (dropout): Dropout(p=0.1, inplace=False)
        )
      )
      (4): BertExtendLayer(
        (attention): BertAttention(
          (self): BertSelfAttention(
            (query): Linear(in_features=768, out_features=768, bias=True)
            (key): Linear(in_features=768, out_features=768, bias=True)
            (value): Linear(in_features=768, out_features=768, bias=True)
            (dropout): Dropout(p=0.1, inplace=False)
          )
          (output): BertSelfOutput(
            (dense): Linear(in_features=768, out_features=768, bias=True)
            (LayerNorm): LayerNorm((768,), eps=1e-12, elementwise_affine=True)
            (dropout): Dropout(p=0.1, inplace=False)
          )
        )
        (intermediate): BertIntermediate(
          (dense): Linear(in_features=768, out_features=3072, bias=True)
          (intermediate_act_fn): GELUActivation()
        )
        (output): BertOutput(
          (dense): Linear(in_features=3072, out_features=768, bias=True)
          (LayerNorm): LayerNorm((768,), eps=1e-12, elementwise_affine=True)
          (dropout): Dropout(p=0.1, inplace=False)
        )
      )
      (5): BertExtendLayer(
        (attention): BertAttention(
          (self): BertSelfAttention(
            (query): Linear(in_features=768, out_features=768, bias=True)
            (key): Linear(in_features=768, out_features=768, bias=True)
            (value): Linear(in_features=768, out_features=768, bias=True)
            (dropout): Dropout(p=0.1, inplace=False)
          )
          (output): BertSelfOutput(
            (dense): Linear(in_features=768, out_features=768, bias=True)
            (LayerNorm): LayerNorm((768,), eps=1e-12, elementwise_affine=True)
            (dropout): Dropout(p=0.1, inplace=False)
          )
        )
        (intermediate): BertIntermediate(
          (dense): Linear(in_features=768, out_features=3072, bias=True)
          (intermediate_act_fn): GELUActivation()
        )
        (output): BertOutput(
          (dense): Linear(in_features=3072, out_features=768, bias=True)
          (LayerNorm): LayerNorm((768,), eps=1e-12, elementwise_affine=True)
          (dropout): Dropout(p=0.1, inplace=False)
        )
      )
      (6): BertExtendLayer(
        (attention): BertAttention(
          (self): BertSelfAttention(
            (query): Linear(in_features=768, out_features=768, bias=True)
            (key): Linear(in_features=768, out_features=768, bias=True)
            (value): Linear(in_features=768, out_features=768, bias=True)
            (dropout): Dropout(p=0.1, inplace=False)
          )
          (output): BertSelfOutput(
            (dense): Linear(in_features=768, out_features=768, bias=True)
            (LayerNorm): LayerNorm((768,), eps=1e-12, elementwise_affine=True)
            (dropout): Dropout(p=0.1, inplace=False)
          )
        )
        (intermediate): BertIntermediate(
          (dense): Linear(in_features=768, out_features=3072, bias=True)
          (intermediate_act_fn): GELUActivation()
        )
        (output): BertOutput(
          (dense): Linear(in_features=3072, out_features=768, bias=True)
          (LayerNorm): LayerNorm((768,), eps=1e-12, elementwise_affine=True)
          (dropout): Dropout(p=0.1, inplace=False)
        )
      )
      (7): BertExtendLayer(
        (attention): BertAttention(
          (self): BertSelfAttention(
            (query): Linear(in_features=768, out_features=768, bias=True)
            (key): Linear(in_features=768, out_features=768, bias=True)
            (value): Linear(in_features=768, out_features=768, bias=True)
            (dropout): Dropout(p=0.1, inplace=False)
          )
          (output): BertSelfOutput(
            (dense): Linear(in_features=768, out_features=768, bias=True)
            (LayerNorm): LayerNorm((768,), eps=1e-12, elementwise_affine=True)
            (dropout): Dropout(p=0.1, inplace=False)
          )
        )
        (intermediate): BertIntermediate(
          (dense): Linear(in_features=768, out_features=3072, bias=True)
          (intermediate_act_fn): GELUActivation()
        )
        (output): BertOutput(
          (dense): Linear(in_features=3072, out_features=768, bias=True)
          (LayerNorm): LayerNorm((768,), eps=1e-12, elementwise_affine=True)
          (dropout): Dropout(p=0.1, inplace=False)
        )
      )
      (8): BertExtendLayer(
        (attention): BertAttention(
          (self): BertSelfAttention(
            (query): Linear(in_features=768, out_features=768, bias=True)
            (key): Linear(in_features=768, out_features=768, bias=True)
            (value): Linear(in_features=768, out_features=768, bias=True)
            (dropout): Dropout(p=0.1, inplace=False)
          )
          (output): BertSelfOutput(
            (dense): Linear(in_features=768, out_features=768, bias=True)
            (LayerNorm): LayerNorm((768,), eps=1e-12, elementwise_affine=True)
            (dropout): Dropout(p=0.1, inplace=False)
          )
        )
        (intermediate): BertIntermediate(
          (dense): Linear(in_features=768, out_features=3072, bias=True)
          (intermediate_act_fn): GELUActivation()
        )
        (output): BertOutput(
          (dense): Linear(in_features=3072, out_features=768, bias=True)
          (LayerNorm): LayerNorm((768,), eps=1e-12, elementwise_affine=True)
          (dropout): Dropout(p=0.1, inplace=False)
        )
      )
      (9): BertExtendLayer(
        (attention): BertAttention(
          (self): BertSelfAttention(
            (query): Linear(in_features=768, out_features=768, bias=True)
            (key): Linear(in_features=768, out_features=768, bias=True)
            (value): Linear(in_features=768, out_features=768, bias=True)
            (dropout): Dropout(p=0.1, inplace=False)
          )
          (output): BertSelfOutput(
            (dense): Linear(in_features=768, out_features=768, bias=True)
            (LayerNorm): LayerNorm((768,), eps=1e-12, elementwise_affine=True)
            (dropout): Dropout(p=0.1, inplace=False)
          )
        )
        (intermediate): BertIntermediate(
          (dense): Linear(in_features=768, out_features=3072, bias=True)
          (intermediate_act_fn): GELUActivation()
        )
        (output): BertOutput(
          (dense): Linear(in_features=3072, out_features=768, bias=True)
          (LayerNorm): LayerNorm((768,), eps=1e-12, elementwise_affine=True)
          (dropout): Dropout(p=0.1, inplace=False)
        )
      )
      (10): BertExtendLayer(
        (attention): BertAttention(
          (self): BertSelfAttention(
            (query): Linear(in_features=768, out_features=768, bias=True)
            (key): Linear(in_features=768, out_features=768, bias=True)
            (value): Linear(in_features=768, out_features=768, bias=True)
            (dropout): Dropout(p=0.1, inplace=False)
          )
          (output): BertSelfOutput(
            (dense): Linear(in_features=768, out_features=768, bias=True)
            (LayerNorm): LayerNorm((768,), eps=1e-12, elementwise_affine=True)
            (dropout): Dropout(p=0.1, inplace=False)
          )
        )
        (intermediate): BertIntermediate(
          (dense): Linear(in_features=768, out_features=3072, bias=True)
          (intermediate_act_fn): GELUActivation()
        )
        (output): BertOutput(
          (dense): Linear(in_features=3072, out_features=768, bias=True)
          (LayerNorm): LayerNorm((768,), eps=1e-12, elementwise_affine=True)
          (dropout): Dropout(p=0.1, inplace=False)
        )
      )
      (11): BertExtendLayer(
        (attention): BertAttention(
          (self): BertSelfAttention(
            (query): Linear(in_features=768, out_features=768, bias=True)
            (key): Linear(in_features=768, out_features=768, bias=True)
            (value): Linear(in_features=768, out_features=768, bias=True)
            (dropout): Dropout(p=0.1, inplace=False)
          )
          (output): BertSelfOutput(
            (dense): Linear(in_features=768, out_features=768, bias=True)
            (LayerNorm): LayerNorm((768,), eps=1e-12, elementwise_affine=True)
            (dropout): Dropout(p=0.1, inplace=False)
          )
        )
        (intermediate): BertIntermediate(
          (dense): Linear(in_features=768, out_features=3072, bias=True)
          (intermediate_act_fn): GELUActivation()
        )
        (output): BertOutput(
          (dense): Linear(in_features=3072, out_features=768, bias=True)
          (LayerNorm): LayerNorm((768,), eps=1e-12, elementwise_affine=True)
          (dropout): Dropout(p=0.1, inplace=False)
        )
        (adapter_graph): ModuleList(
          (0): T5GNNAdapt(
            (conv): GraphConv(768, 128)
            (wo): Linear(in_features=128, out_features=768, bias=False)
            (layer_norm): LayerNorm((768,), eps=1e-12, elementwise_affine=True)
            (dropout_gnn): Dropout(p=0.1, inplace=False)
            (dropout): Dropout(p=0.1, inplace=False)
          )
          (1): T5GNNAdapt(
            (conv): GraphConv(768, 128)
            (wo): Linear(in_features=128, out_features=768, bias=False)
            (layer_norm): LayerNorm((768,), eps=1e-12, elementwise_affine=True)
            (dropout_gnn): Dropout(p=0.1, inplace=False)
            (dropout): Dropout(p=0.1, inplace=False)
          )
          (2): T5GNNAdapt(
            (conv): GraphConv(768, 128)
            (wo): Linear(in_features=128, out_features=768, bias=False)
            (layer_norm): LayerNorm((768,), eps=1e-12, elementwise_affine=True)
            (dropout_gnn): Dropout(p=0.1, inplace=False)
            (dropout): Dropout(p=0.1, inplace=False)
          )
          (3): T5GNNAdapt(
            (conv): GraphConv(768, 128)
            (wo): Linear(in_features=128, out_features=768, bias=False)
            (layer_norm): LayerNorm((768,), eps=1e-12, elementwise_affine=True)
            (dropout_gnn): Dropout(p=0.1, inplace=False)
            (dropout): Dropout(p=0.1, inplace=False)
          )
        )
        (graph2hidden): Linear(in_features=3072, out_features=768, bias=True)
      )
    )
  )
  (pooler): BertMeanPooler(
    (dense): Linear(in_features=768, out_features=768, bias=True)
    (activation): Tanh()
  )
)BertEmbeddings(
  (word_embeddings): Embedding(30794, 768, padding_idx=0)
  (position_embeddings): Embedding(512, 768)
  (token_type_embeddings): Embedding(2, 768)
  (LayerNorm): LayerNorm((768,), eps=1e-12, elementwise_affine=True)
  (dropout): Dropout(p=0.1, inplace=False)
)Embedding(30794, 768, padding_idx=0)Embedding(512, 768)Embedding(2, 768)LayerNorm((768,), eps=1e-12, elementwise_affine=True)Dropout(p=0.1, inplace=False)BertExtendEncoder(
  (layer): ModuleList(
    (0): BertExtendLayer(
      (attention): BertAttention(
        (self): BertSelfAttention(
          (query): Linear(in_features=768, out_features=768, bias=True)
          (key): Linear(in_features=768, out_features=768, bias=True)
          (value): Linear(in_features=768, out_features=768, bias=True)
          (dropout): Dropout(p=0.1, inplace=False)
        )
        (output): BertSelfOutput(
          (dense): Linear(in_features=768, out_features=768, bias=True)
          (LayerNorm): LayerNorm((768,), eps=1e-12, elementwise_affine=True)
          (dropout): Dropout(p=0.1, inplace=False)
        )
      )
      (intermediate): BertIntermediate(
        (dense): Linear(in_features=768, out_features=3072, bias=True)
        (intermediate_act_fn): GELUActivation()
      )
      (output): BertOutput(
        (dense): Linear(in_features=3072, out_features=768, bias=True)
        (LayerNorm): LayerNorm((768,), eps=1e-12, elementwise_affine=True)
        (dropout): Dropout(p=0.1, inplace=False)
      )
    )
    (1): BertExtendLayer(
      (attention): BertAttention(
        (self): BertSelfAttention(
          (query): Linear(in_features=768, out_features=768, bias=True)
          (key): Linear(in_features=768, out_features=768, bias=True)
          (value): Linear(in_features=768, out_features=768, bias=True)
          (dropout): Dropout(p=0.1, inplace=False)
        )
        (output): BertSelfOutput(
          (dense): Linear(in_features=768, out_features=768, bias=True)
          (LayerNorm): LayerNorm((768,), eps=1e-12, elementwise_affine=True)
          (dropout): Dropout(p=0.1, inplace=False)
        )
      )
      (intermediate): BertIntermediate(
        (dense): Linear(in_features=768, out_features=3072, bias=True)
        (intermediate_act_fn): GELUActivation()
      )
      (output): BertOutput(
        (dense): Linear(in_features=3072, out_features=768, bias=True)
        (LayerNorm): LayerNorm((768,), eps=1e-12, elementwise_affine=True)
        (dropout): Dropout(p=0.1, inplace=False)
      )
    )
    (2): BertExtendLayer(
      (attention): BertAttention(
        (self): BertSelfAttention(
          (query): Linear(in_features=768, out_features=768, bias=True)
          (key): Linear(in_features=768, out_features=768, bias=True)
          (value): Linear(in_features=768, out_features=768, bias=True)
          (dropout): Dropout(p=0.1, inplace=False)
        )
        (output): BertSelfOutput(
          (dense): Linear(in_features=768, out_features=768, bias=True)
          (LayerNorm): LayerNorm((768,), eps=1e-12, elementwise_affine=True)
          (dropout): Dropout(p=0.1, inplace=False)
        )
      )
      (intermediate): BertIntermediate(
        (dense): Linear(in_features=768, out_features=3072, bias=True)
        (intermediate_act_fn): GELUActivation()
      )
      (output): BertOutput(
        (dense): Linear(in_features=3072, out_features=768, bias=True)
        (LayerNorm): LayerNorm((768,), eps=1e-12, elementwise_affine=True)
        (dropout): Dropout(p=0.1, inplace=False)
      )
    )
    (3): BertExtendLayer(
      (attention): BertAttention(
        (self): BertSelfAttention(
          (query): Linear(in_features=768, out_features=768, bias=True)
          (key): Linear(in_features=768, out_features=768, bias=True)
          (value): Linear(in_features=768, out_features=768, bias=True)
          (dropout): Dropout(p=0.1, inplace=False)
        )
        (output): BertSelfOutput(
          (dense): Linear(in_features=768, out_features=768, bias=True)
          (LayerNorm): LayerNorm((768,), eps=1e-12, elementwise_affine=True)
          (dropout): Dropout(p=0.1, inplace=False)
        )
      )
      (intermediate): BertIntermediate(
        (dense): Linear(in_features=768, out_features=3072, bias=True)
        (intermediate_act_fn): GELUActivation()
      )
      (output): BertOutput(
        (dense): Linear(in_features=3072, out_features=768, bias=True)
        (LayerNorm): LayerNorm((768,), eps=1e-12, elementwise_affine=True)
        (dropout): Dropout(p=0.1, inplace=False)
      )
    )
    (4): BertExtendLayer(
      (attention): BertAttention(
        (self): BertSelfAttention(
          (query): Linear(in_features=768, out_features=768, bias=True)
          (key): Linear(in_features=768, out_features=768, bias=True)
          (value): Linear(in_features=768, out_features=768, bias=True)
          (dropout): Dropout(p=0.1, inplace=False)
        )
        (output): BertSelfOutput(
          (dense): Linear(in_features=768, out_features=768, bias=True)
          (LayerNorm): LayerNorm((768,), eps=1e-12, elementwise_affine=True)
          (dropout): Dropout(p=0.1, inplace=False)
        )
      )
      (intermediate): BertIntermediate(
        (dense): Linear(in_features=768, out_features=3072, bias=True)
        (intermediate_act_fn): GELUActivation()
      )
      (output): BertOutput(
        (dense): Linear(in_features=3072, out_features=768, bias=True)
        (LayerNorm): LayerNorm((768,), eps=1e-12, elementwise_affine=True)
        (dropout): Dropout(p=0.1, inplace=False)
      )
    )
    (5): BertExtendLayer(
      (attention): BertAttention(
        (self): BertSelfAttention(
          (query): Linear(in_features=768, out_features=768, bias=True)
          (key): Linear(in_features=768, out_features=768, bias=True)
          (value): Linear(in_features=768, out_features=768, bias=True)
          (dropout): Dropout(p=0.1, inplace=False)
        )
        (output): BertSelfOutput(
          (dense): Linear(in_features=768, out_features=768, bias=True)
          (LayerNorm): LayerNorm((768,), eps=1e-12, elementwise_affine=True)
          (dropout): Dropout(p=0.1, inplace=False)
        )
      )
      (intermediate): BertIntermediate(
        (dense): Linear(in_features=768, out_features=3072, bias=True)
        (intermediate_act_fn): GELUActivation()
      )
      (output): BertOutput(
        (dense): Linear(in_features=3072, out_features=768, bias=True)
        (LayerNorm): LayerNorm((768,), eps=1e-12, elementwise_affine=True)
        (dropout): Dropout(p=0.1, inplace=False)
      )
    )
    (6): BertExtendLayer(
      (attention): BertAttention(
        (self): BertSelfAttention(
          (query): Linear(in_features=768, out_features=768, bias=True)
          (key): Linear(in_features=768, out_features=768, bias=True)
          (value): Linear(in_features=768, out_features=768, bias=True)
          (dropout): Dropout(p=0.1, inplace=False)
        )
        (output): BertSelfOutput(
          (dense): Linear(in_features=768, out_features=768, bias=True)
          (LayerNorm): LayerNorm((768,), eps=1e-12, elementwise_affine=True)
          (dropout): Dropout(p=0.1, inplace=False)
        )
      )
      (intermediate): BertIntermediate(
        (dense): Linear(in_features=768, out_features=3072, bias=True)
        (intermediate_act_fn): GELUActivation()
      )
      (output): BertOutput(
        (dense): Linear(in_features=3072, out_features=768, bias=True)
        (LayerNorm): LayerNorm((768,), eps=1e-12, elementwise_affine=True)
        (dropout): Dropout(p=0.1, inplace=False)
      )
    )
    (7): BertExtendLayer(
      (attention): BertAttention(
        (self): BertSelfAttention(
          (query): Linear(in_features=768, out_features=768, bias=True)
          (key): Linear(in_features=768, out_features=768, bias=True)
          (value): Linear(in_features=768, out_features=768, bias=True)
          (dropout): Dropout(p=0.1, inplace=False)
        )
        (output): BertSelfOutput(
          (dense): Linear(in_features=768, out_features=768, bias=True)
          (LayerNorm): LayerNorm((768,), eps=1e-12, elementwise_affine=True)
          (dropout): Dropout(p=0.1, inplace=False)
        )
      )
      (intermediate): BertIntermediate(
        (dense): Linear(in_features=768, out_features=3072, bias=True)
        (intermediate_act_fn): GELUActivation()
      )
      (output): BertOutput(
        (dense): Linear(in_features=3072, out_features=768, bias=True)
        (LayerNorm): LayerNorm((768,), eps=1e-12, elementwise_affine=True)
        (dropout): Dropout(p=0.1, inplace=False)
      )
    )
    (8): BertExtendLayer(
      (attention): BertAttention(
        (self): BertSelfAttention(
          (query): Linear(in_features=768, out_features=768, bias=True)
          (key): Linear(in_features=768, out_features=768, bias=True)
          (value): Linear(in_features=768, out_features=768, bias=True)
          (dropout): Dropout(p=0.1, inplace=False)
        )
        (output): BertSelfOutput(
          (dense): Linear(in_features=768, out_features=768, bias=True)
          (LayerNorm): LayerNorm((768,), eps=1e-12, elementwise_affine=True)
          (dropout): Dropout(p=0.1, inplace=False)
        )
      )
      (intermediate): BertIntermediate(
        (dense): Linear(in_features=768, out_features=3072, bias=True)
        (intermediate_act_fn): GELUActivation()
      )
      (output): BertOutput(
        (dense): Linear(in_features=3072, out_features=768, bias=True)
        (LayerNorm): LayerNorm((768,), eps=1e-12, elementwise_affine=True)
        (dropout): Dropout(p=0.1, inplace=False)
      )
    )
    (9): BertExtendLayer(
      (attention): BertAttention(
        (self): BertSelfAttention(
          (query): Linear(in_features=768, out_features=768, bias=True)
          (key): Linear(in_features=768, out_features=768, bias=True)
          (value): Linear(in_features=768, out_features=768, bias=True)
          (dropout): Dropout(p=0.1, inplace=False)
        )
        (output): BertSelfOutput(
          (dense): Linear(in_features=768, out_features=768, bias=True)
          (LayerNorm): LayerNorm((768,), eps=1e-12, elementwise_affine=True)
          (dropout): Dropout(p=0.1, inplace=False)
        )
      )
      (intermediate): BertIntermediate(
        (dense): Linear(in_features=768, out_features=3072, bias=True)
        (intermediate_act_fn): GELUActivation()
      )
      (output): BertOutput(
        (dense): Linear(in_features=3072, out_features=768, bias=True)
        (LayerNorm): LayerNorm((768,), eps=1e-12, elementwise_affine=True)
        (dropout): Dropout(p=0.1, inplace=False)
      )
    )
    (10): BertExtendLayer(
      (attention): BertAttention(
        (self): BertSelfAttention(
          (query): Linear(in_features=768, out_features=768, bias=True)
          (key): Linear(in_features=768, out_features=768, bias=True)
          (value): Linear(in_features=768, out_features=768, bias=True)
          (dropout): Dropout(p=0.1, inplace=False)
        )
        (output): BertSelfOutput(
          (dense): Linear(in_features=768, out_features=768, bias=True)
          (LayerNorm): LayerNorm((768,), eps=1e-12, elementwise_affine=True)
          (dropout): Dropout(p=0.1, inplace=False)
        )
      )
      (intermediate): BertIntermediate(
        (dense): Linear(in_features=768, out_features=3072, bias=True)
        (intermediate_act_fn): GELUActivation()
      )
      (output): BertOutput(
        (dense): Linear(in_features=3072, out_features=768, bias=True)
        (LayerNorm): LayerNorm((768,), eps=1e-12, elementwise_affine=True)
        (dropout): Dropout(p=0.1, inplace=False)
      )
    )
    (11): BertExtendLayer(
      (attention): BertAttention(
        (self): BertSelfAttention(
          (query): Linear(in_features=768, out_features=768, bias=True)
          (key): Linear(in_features=768, out_features=768, bias=True)
          (value): Linear(in_features=768, out_features=768, bias=True)
          (dropout): Dropout(p=0.1, inplace=False)
        )
        (output): BertSelfOutput(
          (dense): Linear(in_features=768, out_features=768, bias=True)
          (LayerNorm): LayerNorm((768,), eps=1e-12, elementwise_affine=True)
          (dropout): Dropout(p=0.1, inplace=False)
        )
      )
      (intermediate): BertIntermediate(
        (dense): Linear(in_features=768, out_features=3072, bias=True)
        (intermediate_act_fn): GELUActivation()
      )
      (output): BertOutput(
        (dense): Linear(in_features=3072, out_features=768, bias=True)
        (LayerNorm): LayerNorm((768,), eps=1e-12, elementwise_affine=True)
        (dropout): Dropout(p=0.1, inplace=False)
      )
      (adapter_graph): ModuleList(
        (0): T5GNNAdapt(
          (conv): GraphConv(768, 128)
          (wo): Linear(in_features=128, out_features=768, bias=False)
          (layer_norm): LayerNorm((768,), eps=1e-12, elementwise_affine=True)
          (dropout_gnn): Dropout(p=0.1, inplace=False)
          (dropout): Dropout(p=0.1, inplace=False)
        )
        (1): T5GNNAdapt(
          (conv): GraphConv(768, 128)
          (wo): Linear(in_features=128, out_features=768, bias=False)
          (layer_norm): LayerNorm((768,), eps=1e-12, elementwise_affine=True)
          (dropout_gnn): Dropout(p=0.1, inplace=False)
          (dropout): Dropout(p=0.1, inplace=False)
        )
        (2): T5GNNAdapt(
          (conv): GraphConv(768, 128)
          (wo): Linear(in_features=128, out_features=768, bias=False)
          (layer_norm): LayerNorm((768,), eps=1e-12, elementwise_affine=True)
          (dropout_gnn): Dropout(p=0.1, inplace=False)
          (dropout): Dropout(p=0.1, inplace=False)
        )
        (3): T5GNNAdapt(
          (conv): GraphConv(768, 128)
          (wo): Linear(in_features=128, out_features=768, bias=False)
          (layer_norm): LayerNorm((768,), eps=1e-12, elementwise_affine=True)
          (dropout_gnn): Dropout(p=0.1, inplace=False)
          (dropout): Dropout(p=0.1, inplace=False)
        )
      )
      (graph2hidden): Linear(in_features=3072, out_features=768, bias=True)
    )
  )
)ModuleList(
  (0): BertExtendLayer(
    (attention): BertAttention(
      (self): BertSelfAttention(
        (query): Linear(in_features=768, out_features=768, bias=True)
        (key): Linear(in_features=768, out_features=768, bias=True)
        (value): Linear(in_features=768, out_features=768, bias=True)
        (dropout): Dropout(p=0.1, inplace=False)
      )
      (output): BertSelfOutput(
        (dense): Linear(in_features=768, out_features=768, bias=True)
        (LayerNorm): LayerNorm((768,), eps=1e-12, elementwise_affine=True)
        (dropout): Dropout(p=0.1, inplace=False)
      )
    )
    (intermediate): BertIntermediate(
      (dense): Linear(in_features=768, out_features=3072, bias=True)
      (intermediate_act_fn): GELUActivation()
    )
    (output): BertOutput(
      (dense): Linear(in_features=3072, out_features=768, bias=True)
      (LayerNorm): LayerNorm((768,), eps=1e-12, elementwise_affine=True)
      (dropout): Dropout(p=0.1, inplace=False)
    )
  )
  (1): BertExtendLayer(
    (attention): BertAttention(
      (self): BertSelfAttention(
        (query): Linear(in_features=768, out_features=768, bias=True)
        (key): Linear(in_features=768, out_features=768, bias=True)
        (value): Linear(in_features=768, out_features=768, bias=True)
        (dropout): Dropout(p=0.1, inplace=False)
      )
      (output): BertSelfOutput(
        (dense): Linear(in_features=768, out_features=768, bias=True)
        (LayerNorm): LayerNorm((768,), eps=1e-12, elementwise_affine=True)
        (dropout): Dropout(p=0.1, inplace=False)
      )
    )
    (intermediate): BertIntermediate(
      (dense): Linear(in_features=768, out_features=3072, bias=True)
      (intermediate_act_fn): GELUActivation()
    )
    (output): BertOutput(
      (dense): Linear(in_features=3072, out_features=768, bias=True)
      (LayerNorm): LayerNorm((768,), eps=1e-12, elementwise_affine=True)
      (dropout): Dropout(p=0.1, inplace=False)
    )
  )
  (2): BertExtendLayer(
    (attention): BertAttention(
      (self): BertSelfAttention(
        (query): Linear(in_features=768, out_features=768, bias=True)
        (key): Linear(in_features=768, out_features=768, bias=True)
        (value): Linear(in_features=768, out_features=768, bias=True)
        (dropout): Dropout(p=0.1, inplace=False)
      )
      (output): BertSelfOutput(
        (dense): Linear(in_features=768, out_features=768, bias=True)
        (LayerNorm): LayerNorm((768,), eps=1e-12, elementwise_affine=True)
        (dropout): Dropout(p=0.1, inplace=False)
      )
    )
    (intermediate): BertIntermediate(
      (dense): Linear(in_features=768, out_features=3072, bias=True)
      (intermediate_act_fn): GELUActivation()
    )
    (output): BertOutput(
      (dense): Linear(in_features=3072, out_features=768, bias=True)
      (LayerNorm): LayerNorm((768,), eps=1e-12, elementwise_affine=True)
      (dropout): Dropout(p=0.1, inplace=False)
    )
  )
  (3): BertExtendLayer(
    (attention): BertAttention(
      (self): BertSelfAttention(
        (query): Linear(in_features=768, out_features=768, bias=True)
        (key): Linear(in_features=768, out_features=768, bias=True)
        (value): Linear(in_features=768, out_features=768, bias=True)
        (dropout): Dropout(p=0.1, inplace=False)
      )
      (output): BertSelfOutput(
        (dense): Linear(in_features=768, out_features=768, bias=True)
        (LayerNorm): LayerNorm((768,), eps=1e-12, elementwise_affine=True)
        (dropout): Dropout(p=0.1, inplace=False)
      )
    )
    (intermediate): BertIntermediate(
      (dense): Linear(in_features=768, out_features=3072, bias=True)
      (intermediate_act_fn): GELUActivation()
    )
    (output): BertOutput(
      (dense): Linear(in_features=3072, out_features=768, bias=True)
      (LayerNorm): LayerNorm((768,), eps=1e-12, elementwise_affine=True)
      (dropout): Dropout(p=0.1, inplace=False)
    )
  )
  (4): BertExtendLayer(
    (attention): BertAttention(
      (self): BertSelfAttention(
        (query): Linear(in_features=768, out_features=768, bias=True)
        (key): Linear(in_features=768, out_features=768, bias=True)
        (value): Linear(in_features=768, out_features=768, bias=True)
        (dropout): Dropout(p=0.1, inplace=False)
      )
      (output): BertSelfOutput(
        (dense): Linear(in_features=768, out_features=768, bias=True)
        (LayerNorm): LayerNorm((768,), eps=1e-12, elementwise_affine=True)
        (dropout): Dropout(p=0.1, inplace=False)
      )
    )
    (intermediate): BertIntermediate(
      (dense): Linear(in_features=768, out_features=3072, bias=True)
      (intermediate_act_fn): GELUActivation()
    )
    (output): BertOutput(
      (dense): Linear(in_features=3072, out_features=768, bias=True)
      (LayerNorm): LayerNorm((768,), eps=1e-12, elementwise_affine=True)
      (dropout): Dropout(p=0.1, inplace=False)
    )
  )
  (5): BertExtendLayer(
    (attention): BertAttention(
      (self): BertSelfAttention(
        (query): Linear(in_features=768, out_features=768, bias=True)
        (key): Linear(in_features=768, out_features=768, bias=True)
        (value): Linear(in_features=768, out_features=768, bias=True)
        (dropout): Dropout(p=0.1, inplace=False)
      )
      (output): BertSelfOutput(
        (dense): Linear(in_features=768, out_features=768, bias=True)
        (LayerNorm): LayerNorm((768,), eps=1e-12, elementwise_affine=True)
        (dropout): Dropout(p=0.1, inplace=False)
      )
    )
    (intermediate): BertIntermediate(
      (dense): Linear(in_features=768, out_features=3072, bias=True)
      (intermediate_act_fn): GELUActivation()
    )
    (output): BertOutput(
      (dense): Linear(in_features=3072, out_features=768, bias=True)
      (LayerNorm): LayerNorm((768,), eps=1e-12, elementwise_affine=True)
      (dropout): Dropout(p=0.1, inplace=False)
    )
  )
  (6): BertExtendLayer(
    (attention): BertAttention(
      (self): BertSelfAttention(
        (query): Linear(in_features=768, out_features=768, bias=True)
        (key): Linear(in_features=768, out_features=768, bias=True)
        (value): Linear(in_features=768, out_features=768, bias=True)
        (dropout): Dropout(p=0.1, inplace=False)
      )
      (output): BertSelfOutput(
        (dense): Linear(in_features=768, out_features=768, bias=True)
        (LayerNorm): LayerNorm((768,), eps=1e-12, elementwise_affine=True)
        (dropout): Dropout(p=0.1, inplace=False)
      )
    )
    (intermediate): BertIntermediate(
      (dense): Linear(in_features=768, out_features=3072, bias=True)
      (intermediate_act_fn): GELUActivation()
    )
    (output): BertOutput(
      (dense): Linear(in_features=3072, out_features=768, bias=True)
      (LayerNorm): LayerNorm((768,), eps=1e-12, elementwise_affine=True)
      (dropout): Dropout(p=0.1, inplace=False)
    )
  )
  (7): BertExtendLayer(
    (attention): BertAttention(
      (self): BertSelfAttention(
        (query): Linear(in_features=768, out_features=768, bias=True)
        (key): Linear(in_features=768, out_features=768, bias=True)
        (value): Linear(in_features=768, out_features=768, bias=True)
        (dropout): Dropout(p=0.1, inplace=False)
      )
      (output): BertSelfOutput(
        (dense): Linear(in_features=768, out_features=768, bias=True)
        (LayerNorm): LayerNorm((768,), eps=1e-12, elementwise_affine=True)
        (dropout): Dropout(p=0.1, inplace=False)
      )
    )
    (intermediate): BertIntermediate(
      (dense): Linear(in_features=768, out_features=3072, bias=True)
      (intermediate_act_fn): GELUActivation()
    )
    (output): BertOutput(
      (dense): Linear(in_features=3072, out_features=768, bias=True)
      (LayerNorm): LayerNorm((768,), eps=1e-12, elementwise_affine=True)
      (dropout): Dropout(p=0.1, inplace=False)
    )
  )
  (8): BertExtendLayer(
    (attention): BertAttention(
      (self): BertSelfAttention(
        (query): Linear(in_features=768, out_features=768, bias=True)
        (key): Linear(in_features=768, out_features=768, bias=True)
        (value): Linear(in_features=768, out_features=768, bias=True)
        (dropout): Dropout(p=0.1, inplace=False)
      )
      (output): BertSelfOutput(
        (dense): Linear(in_features=768, out_features=768, bias=True)
        (LayerNorm): LayerNorm((768,), eps=1e-12, elementwise_affine=True)
        (dropout): Dropout(p=0.1, inplace=False)
      )
    )
    (intermediate): BertIntermediate(
      (dense): Linear(in_features=768, out_features=3072, bias=True)
      (intermediate_act_fn): GELUActivation()
    )
    (output): BertOutput(
      (dense): Linear(in_features=3072, out_features=768, bias=True)
      (LayerNorm): LayerNorm((768,), eps=1e-12, elementwise_affine=True)
      (dropout): Dropout(p=0.1, inplace=False)
    )
  )
  (9): BertExtendLayer(
    (attention): BertAttention(
      (self): BertSelfAttention(
        (query): Linear(in_features=768, out_features=768, bias=True)
        (key): Linear(in_features=768, out_features=768, bias=True)
        (value): Linear(in_features=768, out_features=768, bias=True)
        (dropout): Dropout(p=0.1, inplace=False)
      )
      (output): BertSelfOutput(
        (dense): Linear(in_features=768, out_features=768, bias=True)
        (LayerNorm): LayerNorm((768,), eps=1e-12, elementwise_affine=True)
        (dropout): Dropout(p=0.1, inplace=False)
      )
    )
    (intermediate): BertIntermediate(
      (dense): Linear(in_features=768, out_features=3072, bias=True)
      (intermediate_act_fn): GELUActivation()
    )
    (output): BertOutput(
      (dense): Linear(in_features=3072, out_features=768, bias=True)
      (LayerNorm): LayerNorm((768,), eps=1e-12, elementwise_affine=True)
      (dropout): Dropout(p=0.1, inplace=False)
    )
  )
  (10): BertExtendLayer(
    (attention): BertAttention(
      (self): BertSelfAttention(
        (query): Linear(in_features=768, out_features=768, bias=True)
        (key): Linear(in_features=768, out_features=768, bias=True)
        (value): Linear(in_features=768, out_features=768, bias=True)
        (dropout): Dropout(p=0.1, inplace=False)
      )
      (output): BertSelfOutput(
        (dense): Linear(in_features=768, out_features=768, bias=True)
        (LayerNorm): LayerNorm((768,), eps=1e-12, elementwise_affine=True)
        (dropout): Dropout(p=0.1, inplace=False)
      )
    )
    (intermediate): BertIntermediate(
      (dense): Linear(in_features=768, out_features=3072, bias=True)
      (intermediate_act_fn): GELUActivation()
    )
    (output): BertOutput(
      (dense): Linear(in_features=3072, out_features=768, bias=True)
      (LayerNorm): LayerNorm((768,), eps=1e-12, elementwise_affine=True)
      (dropout): Dropout(p=0.1, inplace=False)
    )
  )
  (11): BertExtendLayer(
    (attention): BertAttention(
      (self): BertSelfAttention(
        (query): Linear(in_features=768, out_features=768, bias=True)
        (key): Linear(in_features=768, out_features=768, bias=True)
        (value): Linear(in_features=768, out_features=768, bias=True)
        (dropout): Dropout(p=0.1, inplace=False)
      )
      (output): BertSelfOutput(
        (dense): Linear(in_features=768, out_features=768, bias=True)
        (LayerNorm): LayerNorm((768,), eps=1e-12, elementwise_affine=True)
        (dropout): Dropout(p=0.1, inplace=False)
      )
    )
    (intermediate): BertIntermediate(
      (dense): Linear(in_features=768, out_features=3072, bias=True)
      (intermediate_act_fn): GELUActivation()
    )
    (output): BertOutput(
      (dense): Linear(in_features=3072, out_features=768, bias=True)
      (LayerNorm): LayerNorm((768,), eps=1e-12, elementwise_affine=True)
      (dropout): Dropout(p=0.1, inplace=False)
    )
    (adapter_graph): ModuleList(
      (0): T5GNNAdapt(
        (conv): GraphConv(768, 128)
        (wo): Linear(in_features=128, out_features=768, bias=False)
        (layer_norm): LayerNorm((768,), eps=1e-12, elementwise_affine=True)
        (dropout_gnn): Dropout(p=0.1, inplace=False)
        (dropout): Dropout(p=0.1, inplace=False)
      )
      (1): T5GNNAdapt(
        (conv): GraphConv(768, 128)
        (wo): Linear(in_features=128, out_features=768, bias=False)
        (layer_norm): LayerNorm((768,), eps=1e-12, elementwise_affine=True)
        (dropout_gnn): Dropout(p=0.1, inplace=False)
        (dropout): Dropout(p=0.1, inplace=False)
      )
      (2): T5GNNAdapt(
        (conv): GraphConv(768, 128)
        (wo): Linear(in_features=128, out_features=768, bias=False)
        (layer_norm): LayerNorm((768,), eps=1e-12, elementwise_affine=True)
        (dropout_gnn): Dropout(p=0.1, inplace=False)
        (dropout): Dropout(p=0.1, inplace=False)
      )
      (3): T5GNNAdapt(
        (conv): GraphConv(768, 128)
        (wo): Linear(in_features=128, out_features=768, bias=False)
        (layer_norm): LayerNorm((768,), eps=1e-12, elementwise_affine=True)
        (dropout_gnn): Dropout(p=0.1, inplace=False)
        (dropout): Dropout(p=0.1, inplace=False)
      )
    )
    (graph2hidden): Linear(in_features=3072, out_features=768, bias=True)
  )
)BertExtendLayer(
  (attention): BertAttention(
    (self): BertSelfAttention(
      (query): Linear(in_features=768, out_features=768, bias=True)
      (key): Linear(in_features=768, out_features=768, bias=True)
      (value): Linear(in_features=768, out_features=768, bias=True)
      (dropout): Dropout(p=0.1, inplace=False)
    )
    (output): BertSelfOutput(
      (dense): Linear(in_features=768, out_features=768, bias=True)
      (LayerNorm): LayerNorm((768,), eps=1e-12, elementwise_affine=True)
      (dropout): Dropout(p=0.1, inplace=False)
    )
  )
  (intermediate): BertIntermediate(
    (dense): Linear(in_features=768, out_features=3072, bias=True)
    (intermediate_act_fn): GELUActivation()
  )
  (output): BertOutput(
    (dense): Linear(in_features=3072, out_features=768, bias=True)
    (LayerNorm): LayerNorm((768,), eps=1e-12, elementwise_affine=True)
    (dropout): Dropout(p=0.1, inplace=False)
  )
)BertAttention(
  (self): BertSelfAttention(
    (query): Linear(in_features=768, out_features=768, bias=True)
    (key): Linear(in_features=768, out_features=768, bias=True)
    (value): Linear(in_features=768, out_features=768, bias=True)
    (dropout): Dropout(p=0.1, inplace=False)
  )
  (output): BertSelfOutput(
    (dense): Linear(in_features=768, out_features=768, bias=True)
    (LayerNorm): LayerNorm((768,), eps=1e-12, elementwise_affine=True)
    (dropout): Dropout(p=0.1, inplace=False)
  )
)BertSelfAttention(
  (query): Linear(in_features=768, out_features=768, bias=True)
  (key): Linear(in_features=768, out_features=768, bias=True)
  (value): Linear(in_features=768, out_features=768, bias=True)
  (dropout): Dropout(p=0.1, inplace=False)
)Linear(in_features=768, out_features=768, bias=True)Linear(in_features=768, out_features=768, bias=True)Linear(in_features=768, out_features=768, bias=True)Dropout(p=0.1, inplace=False)BertSelfOutput(
  (dense): Linear(in_features=768, out_features=768, bias=True)
  (LayerNorm): LayerNorm((768,), eps=1e-12, elementwise_affine=True)
  (dropout): Dropout(p=0.1, inplace=False)
)Linear(in_features=768, out_features=768, bias=True)LayerNorm((768,), eps=1e-12, elementwise_affine=True)Dropout(p=0.1, inplace=False)BertIntermediate(
  (dense): Linear(in_features=768, out_features=3072, bias=True)
  (intermediate_act_fn): GELUActivation()
)Linear(in_features=768, out_features=3072, bias=True)GELUActivation()BertOutput(
  (dense): Linear(in_features=3072, out_features=768, bias=True)
  (LayerNorm): LayerNorm((768,), eps=1e-12, elementwise_affine=True)
  (dropout): Dropout(p=0.1, inplace=False)
)Linear(in_features=3072, out_features=768, bias=True)LayerNorm((768,), eps=1e-12, elementwise_affine=True)Dropout(p=0.1, inplace=False)BertExtendLayer(
  (attention): BertAttention(
    (self): BertSelfAttention(
      (query): Linear(in_features=768, out_features=768, bias=True)
      (key): Linear(in_features=768, out_features=768, bias=True)
      (value): Linear(in_features=768, out_features=768, bias=True)
      (dropout): Dropout(p=0.1, inplace=False)
    )
    (output): BertSelfOutput(
      (dense): Linear(in_features=768, out_features=768, bias=True)
      (LayerNorm): LayerNorm((768,), eps=1e-12, elementwise_affine=True)
      (dropout): Dropout(p=0.1, inplace=False)
    )
  )
  (intermediate): BertIntermediate(
    (dense): Linear(in_features=768, out_features=3072, bias=True)
    (intermediate_act_fn): GELUActivation()
  )
  (output): BertOutput(
    (dense): Linear(in_features=3072, out_features=768, bias=True)
    (LayerNorm): LayerNorm((768,), eps=1e-12, elementwise_affine=True)
    (dropout): Dropout(p=0.1, inplace=False)
  )
)BertAttention(
  (self): BertSelfAttention(
    (query): Linear(in_features=768, out_features=768, bias=True)
    (key): Linear(in_features=768, out_features=768, bias=True)
    (value): Linear(in_features=768, out_features=768, bias=True)
    (dropout): Dropout(p=0.1, inplace=False)
  )
  (output): BertSelfOutput(
    (dense): Linear(in_features=768, out_features=768, bias=True)
    (LayerNorm): LayerNorm((768,), eps=1e-12, elementwise_affine=True)
    (dropout): Dropout(p=0.1, inplace=False)
  )
)BertSelfAttention(
  (query): Linear(in_features=768, out_features=768, bias=True)
  (key): Linear(in_features=768, out_features=768, bias=True)
  (value): Linear(in_features=768, out_features=768, bias=True)
  (dropout): Dropout(p=0.1, inplace=False)
)Linear(in_features=768, out_features=768, bias=True)Linear(in_features=768, out_features=768, bias=True)Linear(in_features=768, out_features=768, bias=True)Dropout(p=0.1, inplace=False)BertSelfOutput(
  (dense): Linear(in_features=768, out_features=768, bias=True)
  (LayerNorm): LayerNorm((768,), eps=1e-12, elementwise_affine=True)
  (dropout): Dropout(p=0.1, inplace=False)
)Linear(in_features=768, out_features=768, bias=True)LayerNorm((768,), eps=1e-12, elementwise_affine=True)Dropout(p=0.1, inplace=False)BertIntermediate(
  (dense): Linear(in_features=768, out_features=3072, bias=True)
  (intermediate_act_fn): GELUActivation()
)Linear(in_features=768, out_features=3072, bias=True)GELUActivation()BertOutput(
  (dense): Linear(in_features=3072, out_features=768, bias=True)
  (LayerNorm): LayerNorm((768,), eps=1e-12, elementwise_affine=True)
  (dropout): Dropout(p=0.1, inplace=False)
)Linear(in_features=3072, out_features=768, bias=True)LayerNorm((768,), eps=1e-12, elementwise_affine=True)Dropout(p=0.1, inplace=False)BertExtendLayer(
  (attention): BertAttention(
    (self): BertSelfAttention(
      (query): Linear(in_features=768, out_features=768, bias=True)
      (key): Linear(in_features=768, out_features=768, bias=True)
      (value): Linear(in_features=768, out_features=768, bias=True)
      (dropout): Dropout(p=0.1, inplace=False)
    )
    (output): BertSelfOutput(
      (dense): Linear(in_features=768, out_features=768, bias=True)
      (LayerNorm): LayerNorm((768,), eps=1e-12, elementwise_affine=True)
      (dropout): Dropout(p=0.1, inplace=False)
    )
  )
  (intermediate): BertIntermediate(
    (dense): Linear(in_features=768, out_features=3072, bias=True)
    (intermediate_act_fn): GELUActivation()
  )
  (output): BertOutput(
    (dense): Linear(in_features=3072, out_features=768, bias=True)
    (LayerNorm): LayerNorm((768,), eps=1e-12, elementwise_affine=True)
    (dropout): Dropout(p=0.1, inplace=False)
  )
)BertAttention(
  (self): BertSelfAttention(
    (query): Linear(in_features=768, out_features=768, bias=True)
    (key): Linear(in_features=768, out_features=768, bias=True)
    (value): Linear(in_features=768, out_features=768, bias=True)
    (dropout): Dropout(p=0.1, inplace=False)
  )
  (output): BertSelfOutput(
    (dense): Linear(in_features=768, out_features=768, bias=True)
    (LayerNorm): LayerNorm((768,), eps=1e-12, elementwise_affine=True)
    (dropout): Dropout(p=0.1, inplace=False)
  )
)BertSelfAttention(
  (query): Linear(in_features=768, out_features=768, bias=True)
  (key): Linear(in_features=768, out_features=768, bias=True)
  (value): Linear(in_features=768, out_features=768, bias=True)
  (dropout): Dropout(p=0.1, inplace=False)
)Linear(in_features=768, out_features=768, bias=True)Linear(in_features=768, out_features=768, bias=True)Linear(in_features=768, out_features=768, bias=True)Dropout(p=0.1, inplace=False)BertSelfOutput(
  (dense): Linear(in_features=768, out_features=768, bias=True)
  (LayerNorm): LayerNorm((768,), eps=1e-12, elementwise_affine=True)
  (dropout): Dropout(p=0.1, inplace=False)
)Linear(in_features=768, out_features=768, bias=True)LayerNorm((768,), eps=1e-12, elementwise_affine=True)Dropout(p=0.1, inplace=False)BertIntermediate(
  (dense): Linear(in_features=768, out_features=3072, bias=True)
  (intermediate_act_fn): GELUActivation()
)Linear(in_features=768, out_features=3072, bias=True)GELUActivation()BertOutput(
  (dense): Linear(in_features=3072, out_features=768, bias=True)
  (LayerNorm): LayerNorm((768,), eps=1e-12, elementwise_affine=True)
  (dropout): Dropout(p=0.1, inplace=False)
)Linear(in_features=3072, out_features=768, bias=True)LayerNorm((768,), eps=1e-12, elementwise_affine=True)Dropout(p=0.1, inplace=False)BertExtendLayer(
  (attention): BertAttention(
    (self): BertSelfAttention(
      (query): Linear(in_features=768, out_features=768, bias=True)
      (key): Linear(in_features=768, out_features=768, bias=True)
      (value): Linear(in_features=768, out_features=768, bias=True)
      (dropout): Dropout(p=0.1, inplace=False)
    )
    (output): BertSelfOutput(
      (dense): Linear(in_features=768, out_features=768, bias=True)
      (LayerNorm): LayerNorm((768,), eps=1e-12, elementwise_affine=True)
      (dropout): Dropout(p=0.1, inplace=False)
    )
  )
  (intermediate): BertIntermediate(
    (dense): Linear(in_features=768, out_features=3072, bias=True)
    (intermediate_act_fn): GELUActivation()
  )
  (output): BertOutput(
    (dense): Linear(in_features=3072, out_features=768, bias=True)
    (LayerNorm): LayerNorm((768,), eps=1e-12, elementwise_affine=True)
    (dropout): Dropout(p=0.1, inplace=False)
  )
)BertAttention(
  (self): BertSelfAttention(
    (query): Linear(in_features=768, out_features=768, bias=True)
    (key): Linear(in_features=768, out_features=768, bias=True)
    (value): Linear(in_features=768, out_features=768, bias=True)
    (dropout): Dropout(p=0.1, inplace=False)
  )
  (output): BertSelfOutput(
    (dense): Linear(in_features=768, out_features=768, bias=True)
    (LayerNorm): LayerNorm((768,), eps=1e-12, elementwise_affine=True)
    (dropout): Dropout(p=0.1, inplace=False)
  )
)BertSelfAttention(
  (query): Linear(in_features=768, out_features=768, bias=True)
  (key): Linear(in_features=768, out_features=768, bias=True)
  (value): Linear(in_features=768, out_features=768, bias=True)
  (dropout): Dropout(p=0.1, inplace=False)
)Linear(in_features=768, out_features=768, bias=True)Linear(in_features=768, out_features=768, bias=True)Linear(in_features=768, out_features=768, bias=True)Dropout(p=0.1, inplace=False)BertSelfOutput(
  (dense): Linear(in_features=768, out_features=768, bias=True)
  (LayerNorm): LayerNorm((768,), eps=1e-12, elementwise_affine=True)
  (dropout): Dropout(p=0.1, inplace=False)
)Linear(in_features=768, out_features=768, bias=True)LayerNorm((768,), eps=1e-12, elementwise_affine=True)Dropout(p=0.1, inplace=False)BertIntermediate(
  (dense): Linear(in_features=768, out_features=3072, bias=True)
  (intermediate_act_fn): GELUActivation()
)Linear(in_features=768, out_features=3072, bias=True)GELUActivation()BertOutput(
  (dense): Linear(in_features=3072, out_features=768, bias=True)
  (LayerNorm): LayerNorm((768,), eps=1e-12, elementwise_affine=True)
  (dropout): Dropout(p=0.1, inplace=False)
)Linear(in_features=3072, out_features=768, bias=True)LayerNorm((768,), eps=1e-12, elementwise_affine=True)Dropout(p=0.1, inplace=False)BertExtendLayer(
  (attention): BertAttention(
    (self): BertSelfAttention(
      (query): Linear(in_features=768, out_features=768, bias=True)
      (key): Linear(in_features=768, out_features=768, bias=True)
      (value): Linear(in_features=768, out_features=768, bias=True)
      (dropout): Dropout(p=0.1, inplace=False)
    )
    (output): BertSelfOutput(
      (dense): Linear(in_features=768, out_features=768, bias=True)
      (LayerNorm): LayerNorm((768,), eps=1e-12, elementwise_affine=True)
      (dropout): Dropout(p=0.1, inplace=False)
    )
  )
  (intermediate): BertIntermediate(
    (dense): Linear(in_features=768, out_features=3072, bias=True)
    (intermediate_act_fn): GELUActivation()
  )
  (output): BertOutput(
    (dense): Linear(in_features=3072, out_features=768, bias=True)
    (LayerNorm): LayerNorm((768,), eps=1e-12, elementwise_affine=True)
    (dropout): Dropout(p=0.1, inplace=False)
  )
)BertAttention(
  (self): BertSelfAttention(
    (query): Linear(in_features=768, out_features=768, bias=True)
    (key): Linear(in_features=768, out_features=768, bias=True)
    (value): Linear(in_features=768, out_features=768, bias=True)
    (dropout): Dropout(p=0.1, inplace=False)
  )
  (output): BertSelfOutput(
    (dense): Linear(in_features=768, out_features=768, bias=True)
    (LayerNorm): LayerNorm((768,), eps=1e-12, elementwise_affine=True)
    (dropout): Dropout(p=0.1, inplace=False)
  )
)BertSelfAttention(
  (query): Linear(in_features=768, out_features=768, bias=True)
  (key): Linear(in_features=768, out_features=768, bias=True)
  (value): Linear(in_features=768, out_features=768, bias=True)
  (dropout): Dropout(p=0.1, inplace=False)
)Linear(in_features=768, out_features=768, bias=True)Linear(in_features=768, out_features=768, bias=True)Linear(in_features=768, out_features=768, bias=True)Dropout(p=0.1, inplace=False)BertSelfOutput(
  (dense): Linear(in_features=768, out_features=768, bias=True)
  (LayerNorm): LayerNorm((768,), eps=1e-12, elementwise_affine=True)
  (dropout): Dropout(p=0.1, inplace=False)
)Linear(in_features=768, out_features=768, bias=True)LayerNorm((768,), eps=1e-12, elementwise_affine=True)Dropout(p=0.1, inplace=False)BertIntermediate(
  (dense): Linear(in_features=768, out_features=3072, bias=True)
  (intermediate_act_fn): GELUActivation()
)Linear(in_features=768, out_features=3072, bias=True)GELUActivation()BertOutput(
  (dense): Linear(in_features=3072, out_features=768, bias=True)
  (LayerNorm): LayerNorm((768,), eps=1e-12, elementwise_affine=True)
  (dropout): Dropout(p=0.1, inplace=False)
)Linear(in_features=3072, out_features=768, bias=True)LayerNorm((768,), eps=1e-12, elementwise_affine=True)Dropout(p=0.1, inplace=False)BertExtendLayer(
  (attention): BertAttention(
    (self): BertSelfAttention(
      (query): Linear(in_features=768, out_features=768, bias=True)
      (key): Linear(in_features=768, out_features=768, bias=True)
      (value): Linear(in_features=768, out_features=768, bias=True)
      (dropout): Dropout(p=0.1, inplace=False)
    )
    (output): BertSelfOutput(
      (dense): Linear(in_features=768, out_features=768, bias=True)
      (LayerNorm): LayerNorm((768,), eps=1e-12, elementwise_affine=True)
      (dropout): Dropout(p=0.1, inplace=False)
    )
  )
  (intermediate): BertIntermediate(
    (dense): Linear(in_features=768, out_features=3072, bias=True)
    (intermediate_act_fn): GELUActivation()
  )
  (output): BertOutput(
    (dense): Linear(in_features=3072, out_features=768, bias=True)
    (LayerNorm): LayerNorm((768,), eps=1e-12, elementwise_affine=True)
    (dropout): Dropout(p=0.1, inplace=False)
  )
)BertAttention(
  (self): BertSelfAttention(
    (query): Linear(in_features=768, out_features=768, bias=True)
    (key): Linear(in_features=768, out_features=768, bias=True)
    (value): Linear(in_features=768, out_features=768, bias=True)
    (dropout): Dropout(p=0.1, inplace=False)
  )
  (output): BertSelfOutput(
    (dense): Linear(in_features=768, out_features=768, bias=True)
    (LayerNorm): LayerNorm((768,), eps=1e-12, elementwise_affine=True)
    (dropout): Dropout(p=0.1, inplace=False)
  )
)BertSelfAttention(
  (query): Linear(in_features=768, out_features=768, bias=True)
  (key): Linear(in_features=768, out_features=768, bias=True)
  (value): Linear(in_features=768, out_features=768, bias=True)
  (dropout): Dropout(p=0.1, inplace=False)
)Linear(in_features=768, out_features=768, bias=True)Linear(in_features=768, out_features=768, bias=True)Linear(in_features=768, out_features=768, bias=True)Dropout(p=0.1, inplace=False)BertSelfOutput(
  (dense): Linear(in_features=768, out_features=768, bias=True)
  (LayerNorm): LayerNorm((768,), eps=1e-12, elementwise_affine=True)
  (dropout): Dropout(p=0.1, inplace=False)
)Linear(in_features=768, out_features=768, bias=True)LayerNorm((768,), eps=1e-12, elementwise_affine=True)Dropout(p=0.1, inplace=False)BertIntermediate(
  (dense): Linear(in_features=768, out_features=3072, bias=True)
  (intermediate_act_fn): GELUActivation()
)Linear(in_features=768, out_features=3072, bias=True)GELUActivation()BertOutput(
  (dense): Linear(in_features=3072, out_features=768, bias=True)
  (LayerNorm): LayerNorm((768,), eps=1e-12, elementwise_affine=True)
  (dropout): Dropout(p=0.1, inplace=False)
)Linear(in_features=3072, out_features=768, bias=True)LayerNorm((768,), eps=1e-12, elementwise_affine=True)Dropout(p=0.1, inplace=False)BertExtendLayer(
  (attention): BertAttention(
    (self): BertSelfAttention(
      (query): Linear(in_features=768, out_features=768, bias=True)
      (key): Linear(in_features=768, out_features=768, bias=True)
      (value): Linear(in_features=768, out_features=768, bias=True)
      (dropout): Dropout(p=0.1, inplace=False)
    )
    (output): BertSelfOutput(
      (dense): Linear(in_features=768, out_features=768, bias=True)
      (LayerNorm): LayerNorm((768,), eps=1e-12, elementwise_affine=True)
      (dropout): Dropout(p=0.1, inplace=False)
    )
  )
  (intermediate): BertIntermediate(
    (dense): Linear(in_features=768, out_features=3072, bias=True)
    (intermediate_act_fn): GELUActivation()
  )
  (output): BertOutput(
    (dense): Linear(in_features=3072, out_features=768, bias=True)
    (LayerNorm): LayerNorm((768,), eps=1e-12, elementwise_affine=True)
    (dropout): Dropout(p=0.1, inplace=False)
  )
)BertAttention(
  (self): BertSelfAttention(
    (query): Linear(in_features=768, out_features=768, bias=True)
    (key): Linear(in_features=768, out_features=768, bias=True)
    (value): Linear(in_features=768, out_features=768, bias=True)
    (dropout): Dropout(p=0.1, inplace=False)
  )
  (output): BertSelfOutput(
    (dense): Linear(in_features=768, out_features=768, bias=True)
    (LayerNorm): LayerNorm((768,), eps=1e-12, elementwise_affine=True)
    (dropout): Dropout(p=0.1, inplace=False)
  )
)BertSelfAttention(
  (query): Linear(in_features=768, out_features=768, bias=True)
  (key): Linear(in_features=768, out_features=768, bias=True)
  (value): Linear(in_features=768, out_features=768, bias=True)
  (dropout): Dropout(p=0.1, inplace=False)
)Linear(in_features=768, out_features=768, bias=True)Linear(in_features=768, out_features=768, bias=True)Linear(in_features=768, out_features=768, bias=True)Dropout(p=0.1, inplace=False)BertSelfOutput(
  (dense): Linear(in_features=768, out_features=768, bias=True)
  (LayerNorm): LayerNorm((768,), eps=1e-12, elementwise_affine=True)
  (dropout): Dropout(p=0.1, inplace=False)
)Linear(in_features=768, out_features=768, bias=True)LayerNorm((768,), eps=1e-12, elementwise_affine=True)Dropout(p=0.1, inplace=False)BertIntermediate(
  (dense): Linear(in_features=768, out_features=3072, bias=True)
  (intermediate_act_fn): GELUActivation()
)Linear(in_features=768, out_features=3072, bias=True)GELUActivation()BertOutput(
  (dense): Linear(in_features=3072, out_features=768, bias=True)
  (LayerNorm): LayerNorm((768,), eps=1e-12, elementwise_affine=True)
  (dropout): Dropout(p=0.1, inplace=False)
)Linear(in_features=3072, out_features=768, bias=True)LayerNorm((768,), eps=1e-12, elementwise_affine=True)Dropout(p=0.1, inplace=False)BertExtendLayer(
  (attention): BertAttention(
    (self): BertSelfAttention(
      (query): Linear(in_features=768, out_features=768, bias=True)
      (key): Linear(in_features=768, out_features=768, bias=True)
      (value): Linear(in_features=768, out_features=768, bias=True)
      (dropout): Dropout(p=0.1, inplace=False)
    )
    (output): BertSelfOutput(
      (dense): Linear(in_features=768, out_features=768, bias=True)
      (LayerNorm): LayerNorm((768,), eps=1e-12, elementwise_affine=True)
      (dropout): Dropout(p=0.1, inplace=False)
    )
  )
  (intermediate): BertIntermediate(
    (dense): Linear(in_features=768, out_features=3072, bias=True)
    (intermediate_act_fn): GELUActivation()
  )
  (output): BertOutput(
    (dense): Linear(in_features=3072, out_features=768, bias=True)
    (LayerNorm): LayerNorm((768,), eps=1e-12, elementwise_affine=True)
    (dropout): Dropout(p=0.1, inplace=False)
  )
)BertAttention(
  (self): BertSelfAttention(
    (query): Linear(in_features=768, out_features=768, bias=True)
    (key): Linear(in_features=768, out_features=768, bias=True)
    (value): Linear(in_features=768, out_features=768, bias=True)
    (dropout): Dropout(p=0.1, inplace=False)
  )
  (output): BertSelfOutput(
    (dense): Linear(in_features=768, out_features=768, bias=True)
    (LayerNorm): LayerNorm((768,), eps=1e-12, elementwise_affine=True)
    (dropout): Dropout(p=0.1, inplace=False)
  )
)BertSelfAttention(
  (query): Linear(in_features=768, out_features=768, bias=True)
  (key): Linear(in_features=768, out_features=768, bias=True)
  (value): Linear(in_features=768, out_features=768, bias=True)
  (dropout): Dropout(p=0.1, inplace=False)
)Linear(in_features=768, out_features=768, bias=True)Linear(in_features=768, out_features=768, bias=True)Linear(in_features=768, out_features=768, bias=True)Dropout(p=0.1, inplace=False)BertSelfOutput(
  (dense): Linear(in_features=768, out_features=768, bias=True)
  (LayerNorm): LayerNorm((768,), eps=1e-12, elementwise_affine=True)
  (dropout): Dropout(p=0.1, inplace=False)
)Linear(in_features=768, out_features=768, bias=True)LayerNorm((768,), eps=1e-12, elementwise_affine=True)Dropout(p=0.1, inplace=False)BertIntermediate(
  (dense): Linear(in_features=768, out_features=3072, bias=True)
  (intermediate_act_fn): GELUActivation()
)Linear(in_features=768, out_features=3072, bias=True)GELUActivation()BertOutput(
  (dense): Linear(in_features=3072, out_features=768, bias=True)
  (LayerNorm): LayerNorm((768,), eps=1e-12, elementwise_affine=True)
  (dropout): Dropout(p=0.1, inplace=False)
)Linear(in_features=3072, out_features=768, bias=True)LayerNorm((768,), eps=1e-12, elementwise_affine=True)Dropout(p=0.1, inplace=False)BertExtendLayer(
  (attention): BertAttention(
    (self): BertSelfAttention(
      (query): Linear(in_features=768, out_features=768, bias=True)
      (key): Linear(in_features=768, out_features=768, bias=True)
      (value): Linear(in_features=768, out_features=768, bias=True)
      (dropout): Dropout(p=0.1, inplace=False)
    )
    (output): BertSelfOutput(
      (dense): Linear(in_features=768, out_features=768, bias=True)
      (LayerNorm): LayerNorm((768,), eps=1e-12, elementwise_affine=True)
      (dropout): Dropout(p=0.1, inplace=False)
    )
  )
  (intermediate): BertIntermediate(
    (dense): Linear(in_features=768, out_features=3072, bias=True)
    (intermediate_act_fn): GELUActivation()
  )
  (output): BertOutput(
    (dense): Linear(in_features=3072, out_features=768, bias=True)
    (LayerNorm): LayerNorm((768,), eps=1e-12, elementwise_affine=True)
    (dropout): Dropout(p=0.1, inplace=False)
  )
)BertAttention(
  (self): BertSelfAttention(
    (query): Linear(in_features=768, out_features=768, bias=True)
    (key): Linear(in_features=768, out_features=768, bias=True)
    (value): Linear(in_features=768, out_features=768, bias=True)
    (dropout): Dropout(p=0.1, inplace=False)
  )
  (output): BertSelfOutput(
    (dense): Linear(in_features=768, out_features=768, bias=True)
    (LayerNorm): LayerNorm((768,), eps=1e-12, elementwise_affine=True)
    (dropout): Dropout(p=0.1, inplace=False)
  )
)BertSelfAttention(
  (query): Linear(in_features=768, out_features=768, bias=True)
  (key): Linear(in_features=768, out_features=768, bias=True)
  (value): Linear(in_features=768, out_features=768, bias=True)
  (dropout): Dropout(p=0.1, inplace=False)
)Linear(in_features=768, out_features=768, bias=True)Linear(in_features=768, out_features=768, bias=True)Linear(in_features=768, out_features=768, bias=True)Dropout(p=0.1, inplace=False)BertSelfOutput(
  (dense): Linear(in_features=768, out_features=768, bias=True)
  (LayerNorm): LayerNorm((768,), eps=1e-12, elementwise_affine=True)
  (dropout): Dropout(p=0.1, inplace=False)
)Linear(in_features=768, out_features=768, bias=True)LayerNorm((768,), eps=1e-12, elementwise_affine=True)Dropout(p=0.1, inplace=False)BertIntermediate(
  (dense): Linear(in_features=768, out_features=3072, bias=True)
  (intermediate_act_fn): GELUActivation()
)Linear(in_features=768, out_features=3072, bias=True)GELUActivation()BertOutput(
  (dense): Linear(in_features=3072, out_features=768, bias=True)
  (LayerNorm): LayerNorm((768,), eps=1e-12, elementwise_affine=True)
  (dropout): Dropout(p=0.1, inplace=False)
)Linear(in_features=3072, out_features=768, bias=True)LayerNorm((768,), eps=1e-12, elementwise_affine=True)Dropout(p=0.1, inplace=False)BertExtendLayer(
  (attention): BertAttention(
    (self): BertSelfAttention(
      (query): Linear(in_features=768, out_features=768, bias=True)
      (key): Linear(in_features=768, out_features=768, bias=True)
      (value): Linear(in_features=768, out_features=768, bias=True)
      (dropout): Dropout(p=0.1, inplace=False)
    )
    (output): BertSelfOutput(
      (dense): Linear(in_features=768, out_features=768, bias=True)
      (LayerNorm): LayerNorm((768,), eps=1e-12, elementwise_affine=True)
      (dropout): Dropout(p=0.1, inplace=False)
    )
  )
  (intermediate): BertIntermediate(
    (dense): Linear(in_features=768, out_features=3072, bias=True)
    (intermediate_act_fn): GELUActivation()
  )
  (output): BertOutput(
    (dense): Linear(in_features=3072, out_features=768, bias=True)
    (LayerNorm): LayerNorm((768,), eps=1e-12, elementwise_affine=True)
    (dropout): Dropout(p=0.1, inplace=False)
  )
)BertAttention(
  (self): BertSelfAttention(
    (query): Linear(in_features=768, out_features=768, bias=True)
    (key): Linear(in_features=768, out_features=768, bias=True)
    (value): Linear(in_features=768, out_features=768, bias=True)
    (dropout): Dropout(p=0.1, inplace=False)
  )
  (output): BertSelfOutput(
    (dense): Linear(in_features=768, out_features=768, bias=True)
    (LayerNorm): LayerNorm((768,), eps=1e-12, elementwise_affine=True)
    (dropout): Dropout(p=0.1, inplace=False)
  )
)BertSelfAttention(
  (query): Linear(in_features=768, out_features=768, bias=True)
  (key): Linear(in_features=768, out_features=768, bias=True)
  (value): Linear(in_features=768, out_features=768, bias=True)
  (dropout): Dropout(p=0.1, inplace=False)
)Linear(in_features=768, out_features=768, bias=True)Linear(in_features=768, out_features=768, bias=True)Linear(in_features=768, out_features=768, bias=True)Dropout(p=0.1, inplace=False)BertSelfOutput(
  (dense): Linear(in_features=768, out_features=768, bias=True)
  (LayerNorm): LayerNorm((768,), eps=1e-12, elementwise_affine=True)
  (dropout): Dropout(p=0.1, inplace=False)
)Linear(in_features=768, out_features=768, bias=True)LayerNorm((768,), eps=1e-12, elementwise_affine=True)Dropout(p=0.1, inplace=False)BertIntermediate(
  (dense): Linear(in_features=768, out_features=3072, bias=True)
  (intermediate_act_fn): GELUActivation()
)Linear(in_features=768, out_features=3072, bias=True)GELUActivation()BertOutput(
  (dense): Linear(in_features=3072, out_features=768, bias=True)
  (LayerNorm): LayerNorm((768,), eps=1e-12, elementwise_affine=True)
  (dropout): Dropout(p=0.1, inplace=False)
)Linear(in_features=3072, out_features=768, bias=True)LayerNorm((768,), eps=1e-12, elementwise_affine=True)Dropout(p=0.1, inplace=False)BertExtendLayer(
  (attention): BertAttention(
    (self): BertSelfAttention(
      (query): Linear(in_features=768, out_features=768, bias=True)
      (key): Linear(in_features=768, out_features=768, bias=True)
      (value): Linear(in_features=768, out_features=768, bias=True)
      (dropout): Dropout(p=0.1, inplace=False)
    )
    (output): BertSelfOutput(
      (dense): Linear(in_features=768, out_features=768, bias=True)
      (LayerNorm): LayerNorm((768,), eps=1e-12, elementwise_affine=True)
      (dropout): Dropout(p=0.1, inplace=False)
    )
  )
  (intermediate): BertIntermediate(
    (dense): Linear(in_features=768, out_features=3072, bias=True)
    (intermediate_act_fn): GELUActivation()
  )
  (output): BertOutput(
    (dense): Linear(in_features=3072, out_features=768, bias=True)
    (LayerNorm): LayerNorm((768,), eps=1e-12, elementwise_affine=True)
    (dropout): Dropout(p=0.1, inplace=False)
  )
)BertAttention(
  (self): BertSelfAttention(
    (query): Linear(in_features=768, out_features=768, bias=True)
    (key): Linear(in_features=768, out_features=768, bias=True)
    (value): Linear(in_features=768, out_features=768, bias=True)
    (dropout): Dropout(p=0.1, inplace=False)
  )
  (output): BertSelfOutput(
    (dense): Linear(in_features=768, out_features=768, bias=True)
    (LayerNorm): LayerNorm((768,), eps=1e-12, elementwise_affine=True)
    (dropout): Dropout(p=0.1, inplace=False)
  )
)BertSelfAttention(
  (query): Linear(in_features=768, out_features=768, bias=True)
  (key): Linear(in_features=768, out_features=768, bias=True)
  (value): Linear(in_features=768, out_features=768, bias=True)
  (dropout): Dropout(p=0.1, inplace=False)
)Linear(in_features=768, out_features=768, bias=True)Linear(in_features=768, out_features=768, bias=True)Linear(in_features=768, out_features=768, bias=True)Dropout(p=0.1, inplace=False)BertSelfOutput(
  (dense): Linear(in_features=768, out_features=768, bias=True)
  (LayerNorm): LayerNorm((768,), eps=1e-12, elementwise_affine=True)
  (dropout): Dropout(p=0.1, inplace=False)
)Linear(in_features=768, out_features=768, bias=True)LayerNorm((768,), eps=1e-12, elementwise_affine=True)Dropout(p=0.1, inplace=False)BertIntermediate(
  (dense): Linear(in_features=768, out_features=3072, bias=True)
  (intermediate_act_fn): GELUActivation()
)Linear(in_features=768, out_features=3072, bias=True)GELUActivation()BertOutput(
  (dense): Linear(in_features=3072, out_features=768, bias=True)
  (LayerNorm): LayerNorm((768,), eps=1e-12, elementwise_affine=True)
  (dropout): Dropout(p=0.1, inplace=False)
)Linear(in_features=3072, out_features=768, bias=True)LayerNorm((768,), eps=1e-12, elementwise_affine=True)Dropout(p=0.1, inplace=False)BertExtendLayer(
  (attention): BertAttention(
    (self): BertSelfAttention(
      (query): Linear(in_features=768, out_features=768, bias=True)
      (key): Linear(in_features=768, out_features=768, bias=True)
      (value): Linear(in_features=768, out_features=768, bias=True)
      (dropout): Dropout(p=0.1, inplace=False)
    )
    (output): BertSelfOutput(
      (dense): Linear(in_features=768, out_features=768, bias=True)
      (LayerNorm): LayerNorm((768,), eps=1e-12, elementwise_affine=True)
      (dropout): Dropout(p=0.1, inplace=False)
    )
  )
  (intermediate): BertIntermediate(
    (dense): Linear(in_features=768, out_features=3072, bias=True)
    (intermediate_act_fn): GELUActivation()
  )
  (output): BertOutput(
    (dense): Linear(in_features=3072, out_features=768, bias=True)
    (LayerNorm): LayerNorm((768,), eps=1e-12, elementwise_affine=True)
    (dropout): Dropout(p=0.1, inplace=False)
  )
  (adapter_graph): ModuleList(
    (0): T5GNNAdapt(
      (conv): GraphConv(768, 128)
      (wo): Linear(in_features=128, out_features=768, bias=False)
      (layer_norm): LayerNorm((768,), eps=1e-12, elementwise_affine=True)
      (dropout_gnn): Dropout(p=0.1, inplace=False)
      (dropout): Dropout(p=0.1, inplace=False)
    )
    (1): T5GNNAdapt(
      (conv): GraphConv(768, 128)
      (wo): Linear(in_features=128, out_features=768, bias=False)
      (layer_norm): LayerNorm((768,), eps=1e-12, elementwise_affine=True)
      (dropout_gnn): Dropout(p=0.1, inplace=False)
      (dropout): Dropout(p=0.1, inplace=False)
    )
    (2): T5GNNAdapt(
      (conv): GraphConv(768, 128)
      (wo): Linear(in_features=128, out_features=768, bias=False)
      (layer_norm): LayerNorm((768,), eps=1e-12, elementwise_affine=True)
      (dropout_gnn): Dropout(p=0.1, inplace=False)
      (dropout): Dropout(p=0.1, inplace=False)
    )
    (3): T5GNNAdapt(
      (conv): GraphConv(768, 128)
      (wo): Linear(in_features=128, out_features=768, bias=False)
      (layer_norm): LayerNorm((768,), eps=1e-12, elementwise_affine=True)
      (dropout_gnn): Dropout(p=0.1, inplace=False)
      (dropout): Dropout(p=0.1, inplace=False)
    )
  )
  (graph2hidden): Linear(in_features=3072, out_features=768, bias=True)
)BertAttention(
  (self): BertSelfAttention(
    (query): Linear(in_features=768, out_features=768, bias=True)
    (key): Linear(in_features=768, out_features=768, bias=True)
    (value): Linear(in_features=768, out_features=768, bias=True)
    (dropout): Dropout(p=0.1, inplace=False)
  )
  (output): BertSelfOutput(
    (dense): Linear(in_features=768, out_features=768, bias=True)
    (LayerNorm): LayerNorm((768,), eps=1e-12, elementwise_affine=True)
    (dropout): Dropout(p=0.1, inplace=False)
  )
)BertSelfAttention(
  (query): Linear(in_features=768, out_features=768, bias=True)
  (key): Linear(in_features=768, out_features=768, bias=True)
  (value): Linear(in_features=768, out_features=768, bias=True)
  (dropout): Dropout(p=0.1, inplace=False)
)Linear(in_features=768, out_features=768, bias=True)Linear(in_features=768, out_features=768, bias=True)Linear(in_features=768, out_features=768, bias=True)Dropout(p=0.1, inplace=False)BertSelfOutput(
  (dense): Linear(in_features=768, out_features=768, bias=True)
  (LayerNorm): LayerNorm((768,), eps=1e-12, elementwise_affine=True)
  (dropout): Dropout(p=0.1, inplace=False)
)Linear(in_features=768, out_features=768, bias=True)LayerNorm((768,), eps=1e-12, elementwise_affine=True)Dropout(p=0.1, inplace=False)BertIntermediate(
  (dense): Linear(in_features=768, out_features=3072, bias=True)
  (intermediate_act_fn): GELUActivation()
)Linear(in_features=768, out_features=3072, bias=True)GELUActivation()BertOutput(
  (dense): Linear(in_features=3072, out_features=768, bias=True)
  (LayerNorm): LayerNorm((768,), eps=1e-12, elementwise_affine=True)
  (dropout): Dropout(p=0.1, inplace=False)
)Linear(in_features=3072, out_features=768, bias=True)LayerNorm((768,), eps=1e-12, elementwise_affine=True)Dropout(p=0.1, inplace=False)ModuleList(
  (0): T5GNNAdapt(
    (conv): GraphConv(768, 128)
    (wo): Linear(in_features=128, out_features=768, bias=False)
    (layer_norm): LayerNorm((768,), eps=1e-12, elementwise_affine=True)
    (dropout_gnn): Dropout(p=0.1, inplace=False)
    (dropout): Dropout(p=0.1, inplace=False)
  )
  (1): T5GNNAdapt(
    (conv): GraphConv(768, 128)
    (wo): Linear(in_features=128, out_features=768, bias=False)
    (layer_norm): LayerNorm((768,), eps=1e-12, elementwise_affine=True)
    (dropout_gnn): Dropout(p=0.1, inplace=False)
    (dropout): Dropout(p=0.1, inplace=False)
  )
  (2): T5GNNAdapt(
    (conv): GraphConv(768, 128)
    (wo): Linear(in_features=128, out_features=768, bias=False)
    (layer_norm): LayerNorm((768,), eps=1e-12, elementwise_affine=True)
    (dropout_gnn): Dropout(p=0.1, inplace=False)
    (dropout): Dropout(p=0.1, inplace=False)
  )
  (3): T5GNNAdapt(
    (conv): GraphConv(768, 128)
    (wo): Linear(in_features=128, out_features=768, bias=False)
    (layer_norm): LayerNorm((768,), eps=1e-12, elementwise_affine=True)
    (dropout_gnn): Dropout(p=0.1, inplace=False)
    (dropout): Dropout(p=0.1, inplace=False)
  )
)T5GNNAdapt(
  (conv): GraphConv(768, 128)
  (wo): Linear(in_features=128, out_features=768, bias=False)
  (layer_norm): LayerNorm((768,), eps=1e-12, elementwise_affine=True)
  (dropout_gnn): Dropout(p=0.1, inplace=False)
  (dropout): Dropout(p=0.1, inplace=False)
)GraphConv(768, 128)SumAggregation()Linear(768, 128, bias=True)Linear(768, 128, bias=False)Linear(in_features=128, out_features=768, bias=False)LayerNorm((768,), eps=1e-12, elementwise_affine=True)Dropout(p=0.1, inplace=False)Dropout(p=0.1, inplace=False)T5GNNAdapt(
  (conv): GraphConv(768, 128)
  (wo): Linear(in_features=128, out_features=768, bias=False)
  (layer_norm): LayerNorm((768,), eps=1e-12, elementwise_affine=True)
  (dropout_gnn): Dropout(p=0.1, inplace=False)
  (dropout): Dropout(p=0.1, inplace=False)
)GraphConv(768, 128)SumAggregation()Linear(768, 128, bias=True)Linear(768, 128, bias=False)Linear(in_features=128, out_features=768, bias=False)LayerNorm((768,), eps=1e-12, elementwise_affine=True)Dropout(p=0.1, inplace=False)Dropout(p=0.1, inplace=False)T5GNNAdapt(
  (conv): GraphConv(768, 128)
  (wo): Linear(in_features=128, out_features=768, bias=False)
  (layer_norm): LayerNorm((768,), eps=1e-12, elementwise_affine=True)
  (dropout_gnn): Dropout(p=0.1, inplace=False)
  (dropout): Dropout(p=0.1, inplace=False)
)GraphConv(768, 128)SumAggregation()Linear(768, 128, bias=True)Linear(768, 128, bias=False)Linear(in_features=128, out_features=768, bias=False)LayerNorm((768,), eps=1e-12, elementwise_affine=True)Dropout(p=0.1, inplace=False)Dropout(p=0.1, inplace=False)T5GNNAdapt(
  (conv): GraphConv(768, 128)
  (wo): Linear(in_features=128, out_features=768, bias=False)
  (layer_norm): LayerNorm((768,), eps=1e-12, elementwise_affine=True)
  (dropout_gnn): Dropout(p=0.1, inplace=False)
  (dropout): Dropout(p=0.1, inplace=False)
)GraphConv(768, 128)SumAggregation()Linear(768, 128, bias=True)Linear(768, 128, bias=False)Linear(in_features=128, out_features=768, bias=False)LayerNorm((768,), eps=1e-12, elementwise_affine=True)Dropout(p=0.1, inplace=False)Dropout(p=0.1, inplace=False)Linear(in_features=3072, out_features=768, bias=True)BertMeanPooler(
  (dense): Linear(in_features=768, out_features=768, bias=True)
  (activation): Tanh()
)Linear(in_features=768, out_features=768, bias=True)Tanh()Pooling({'word_embedding_dimension': 768, 'pooling_mode_cls_token': False, 'pooling_mode_mean_tokens': True, 'pooling_mode_max_tokens': False, 'pooling_mode_mean_sqrt_len_tokens': False, 'pooling_mode_weightedmean_tokens': False, 'pooling_mode_lasttoken': False})